Model: "c4-merge-100k"
_________________________________________________________________
Layer (type)                 Output Shape              Param #
=================================================================
dense_1 (Dense)              (None, 43)                1892
_________________________________________________________________
dense_2 (Dense)              (None, 64)                2816
_________________________________________________________________
dense_3 (Dense)              (None, 256)               16640     
_________________________________________________________________
dense_4 (Dense)              (None, 256)               65792
_________________________________________________________________
dense_5 (Dense)              (None, 42)                10794
_________________________________________________________________
dense_6 (Dense)              (None, 3)                 129
=================================================================
Total params: 98,063
Trainable params: 98,063
Non-trainable params: 0
_________________________________________________________________
Using options: check_early_win, prevent_other_win
Model ready. Press enter to start tests.
Simulating games...: 100%|█████████████████| 1000/1000 [00:54<00:00, 18.30it/s]
Accuracy vs random (x1000)     : 99.70% wins, 0.00% draws, 0.30% losses.
…
